model.pt (torch, 616015 bytes, 145 tensors)

inc.double_conv.0.weight f4 [2, 1, 3, 3]
00000000: 221e 3a3d 7d46 2ebd 39cb 293d 6ea0 91bd
00000010: 917a c73d dc26 9abd a7ef 123e 7ecc ec3e
00000020: 73cf 073e a295 e9bb e576 98bc 0f5d 50bc
00000030: 3be2 bcbc 0dd4 91bd 89c4 f0bc 0077 11be
00000040: 4686 7abe 108c ecbd
0.045438893 -0.04254769 0.041453574 -0.07110678 0.097401746 -0.07526943 0.14349233 0.46249765
0.1326273 -0.0071284333 -0.01861138 -0.012717499 -0.023057094 -0.071205236 -0.02939059 -0.14205551
-0.24465284 -0.11550152

inc.double_conv.0.bias f4 [2]
00000000: 5e2b 2cbe f67f 2dbe
-0.16813418 -0.16943344

inc.double_conv.1.weight f4 [16, 2, 1, 1]
00000000: d6ac ab3e 60cc b4bc 8737 39be 2983 98bb
00000010: ea7b 0f3f c45f cd3d 7832 663e e22e 2a3e
00000020: fc57 e4be 2a23 b9be 5ce9 943e dd26 a9bc
00000030: b52a 163f 7a70 d5bc 2bfe 1dbf e57e 18be
00000040: c3c3 c33d 9278 333c 4f4d ac3d 7f39 a43c
00000050: e0b4 4c3f 8dda 4e3f 746a cc3d 20bb 9fbd
00000060: eabf 6ebf b7ef 183e 9cf1 c63d 088d 203c
00000070: 0570 513d 6b14 553e 8142 0840 b5ce f9be
0.335303 -0.02207011 -0.18087588 -0.0046543074 0.5604845 0.100280315 0.2248019 0.16619447
-0.44598377 -0.3615964 0.2908429 -0.020648414 0.58658916 -0.02605461 -0.61715955 -0.14892156
0.09558823 0.010954039 0.08413183 0.020046948 0.79963493 0.8080223 0.09981242 -0.07799363
-0.9326159 0.14935194 0.09714052 0.0097992495 0.05113222 0.2080857 2.129059 -0.48790517

inc.double_conv.1.bias f4 [16]
00000000: 3daf a9bd a8a6 98bc bf13 24bf 473e 733e
00000010: 9d3c d23d 3505 aa3e 9e15 04bf a9ef c63e
00000020: 8482 02bd c214 bcbe 2a53 cd3e a7c2 e2bd
00000030: 916e 57bd 5523 e43d a6f3 f1be ad83 22bd
-0.08285377 -0.018634155 -0.6409263 0.23754226 0.10265467 0.33207098 -0.51595485 0.3885472
-0.03186275 -0.36734587 0.40102512 -0.11072283 -0.05259568 0.111395516 -0.47256202 -0.039676357

inc.double_conv.2.weight f4 [16]
00000000: adbf 973f 9983 aa3f 156c 523f 3682 9f3f
00000010: 0e0a 663f c644 a73f b07c 713f ad16 823f
00000020: df08 8d3f b0b4 773f b56b 6c3f 087e 763f
00000030: e9b1 953f 206c 853f e79b a13f 079a 8a3f
1.185537 1.332141 0.8219617 1.2461612 0.8985909 1.3067863 0.94330883 1.016317
1.1018332 0.9676008 0.9235185 0.9628606 1.1694919 1.0423622 1.2625703 1.0828255

inc.double_conv.2.bias f4 [16]
00000000: dec4 7c3d 2936 bc3c a1c0 eebe 07b9 98bd
00000010: 2776 983e ed3d 0b3f 4205 f53c 6c90 82bd
00000020: 307b 06be 7a6c f9bc c5f5 d83d b8ce 34be
00000030: aeca cdbd a55d 60bd 4c4d a5bd 6b4a 143e
0.061711185 0.022975044 -0.4663134 -0.07457166 0.29777643 0.54391366 0.029909734 -0.063752025
-0.1313293 -0.030447233 0.10593752 -0.17656982 -0.10048424 -0.054776806 -0.08071384 0.14481513

inc.double_conv.2.running_mean f4 [16]
00000000: afbe 09be 4991 433c f028 40bf 3ded 2f3e
00000010: 3d56 743e 572d 933e d0b7 1bbf b51c 043f
00000020: 0a5c 4bbd d5ef c4be 45c7 043e e6ef e8bd
00000030: 5db9 9a3d 5942 bf3d e34d 04bf 4335 9dbe
-0.13451646 0.011936494 -0.75062466 0.17180343 0.23861022 0.2874553 -0.6082735 0.51606303
-0.049648322 -0.38464227 0.1296664 -0.11373882 0.075548865 0.09338827 -0.51681346 -0.30704698

inc.double_conv.2.running_var f4 [16]
00000000: 4121 5637 672b 6b36 8322 0b38 a403 0837
00000010: 0007 1238 7b8f 2137 081f 2138 26ee 2938
00000020: 2377 8035 8204 4a35 3159 1639 43ed 2536
00000030: 0164 dd38 39ed 8435 c1ce e436 91c0 193a
1.27631365e-05 3.5042992e-06 3.3172324e-05 8.107079e-06 3.481563e-05 9.6297545e-06 3.841429e-05 4.0514533e-05
9.571417e-07 7.5257424e-07 0.00014338341 2.472502e-06 0.000105567284 9.903807e-07 6.818999e-06 0.00058651814

inc.double_conv.4.weight f4 [16, 1, 3, 3]
00000000: fb42 5fbd 853a 813e 2d24 42bd 50f0 ca3e
00000010: 4004 2ebf 2a37 183e be7b c43a 1812 9b3e
00000020: 63ac 5bbe 3b2c 8f3e 5804 4bbf 2605 82b6
00000030: 114f 71bd f832 d8bd 1813 2ebe 40b1 963e
00000040: 9c1d c2be 7150 a63e 65e9 8e3d d342 c03e
00000050: 2f70 cfbe 492c e2bc 1b54 643c c4fd 743e
00000060: 6cce f0bd afa6 89be 57e7 22be 3b88 6fbe
00000070: 9083 853e 3acd b8be f797 203e 2077 34be
00000080: 8910 ff3d 34eb 28be 9233 1b3f f544 66be
00000090: 4415 c03d 13af 87bd 48bf a3bd 3473 e2bd
000000a0: 906a 49bf 2679 fdbd fd4e 763e 4c99 b23e
000000b0: 52ae 4a3e 2333 f33c 1119 343e cb76 0b3e
000000c0: 9344 df3c c7b0 903e 4697 223c 2b3e c33d
000000d0: 4bb1 7abf 5049 80bd 882c 0e3e 227b bebe
000000e0: 4a37 86bb 6a90 503e 3371 a1be 619d cf3d
000000f0: 5c5c 983e 36e1 c2be de2f da3e 78a2 08be
00000100: 49ff 69be c9ef d63d 66ee 46be 9fb6 c6be
00000110: aaac 30be bafb 1abe 05cc 01bf b2ac f13c
00000120: 2a75 13be 3bdf babe b395 1bbe 53ba 933d
00000130: 33b4 06bf 67ec 69be 40fe 95be 2ab6 d9be
00000140: 0078 7b3d e129 c3be 31ba 31bb c0fb b1be
00000150: 9f93 cfbd a771 2cbe 697b 343e 9deb c7be
00000160: a0ca 7cbe c35b 3abe 8d5a 893d 5d6e 803c
00000170: 6ba8 e93d df1d 423e d9cc 273f a86a 613e
00000180: ee63 d5bc 7ba1 80bd dd86 0abc f62c a5bc
00000190: 539d 573e 570e 7c3d e824 6fbe 270b 5cbe
000001a0: cedb f4be a3ca cfbe 54ac 16be 044a 7fbe
000001b0: 336b 143e 38ce e13d 0c02 81bc f66f 263e
000001c0: 8f2c 653c 3d4c be3d 1848 90bd 0e69 6d3f
000001d0: 8193 93be 2534 753d 4be1 0c3f 4823 983e
000001e0: e5f7 f13d de6b c23d 6ea2 bf3e 25ef 04be
000001f0: ecc5 133e c42b 1d3d 0173 31be 8c3e 303e
00000200: ef37 b6be 826d 94be d0e7 073f 6885 d8be
00000210: 3eb1 ce3e d9a7 00bf 1b95 a63e 3850 8b3e
00000220: 391e d43e 2bc4 8c3e 0687 813e f827 af3e
00000230: 2946 e03e 35f4 af3e 1d97 513e c3d7 2c3e
-0.054507237 0.2523996 -0.04739778 0.3963647 -0.67975235 0.14864793 0.0014990491 0.30287242
-0.21452479 0.27963433 -0.79303503 -3.8749013e-06 -0.058913294 -0.105565965 -0.16999471 0.29432106
-0.37913215 0.32483247 0.0697811 0.37550983 -0.40515277 -0.027609007 0.013936068 0.23924929
-0.11758122 -0.26884982 -0.15908562 -0.23391812 0.26076937 -0.36094075 0.1568297 -0.17623568
0.12454326 -0.16495973 0.60625565 -0.22487243 0.09379056 -0.0662519 -0.079954684 -0.110571295
-0.78678226 -0.12376623 0.24053569 0.3488258 0.1979306 0.02968747 0.17587687 0.13619535
0.027254378 0.2825987 0.009923762 0.09533342 -0.9792678 -0.06263983 0.13884175 -0.37203318
-0.0040959464 0.2036759 -0.31531677 0.101374395 0.29757965 -0.38062447 0.42614645 -0.13343227
-0.2285129 0.10494954 -0.1942688 -0.38811204 -0.17253366 -0.15135089 -0.50701934 0.029501293
-0.14400163 -0.36498436 -0.15193824 0.07213273 -0.5261871 -0.22844087 -0.2929554 -0.42521793
0.061393738 -0.3811789 -0.0027119035 -0.34762383 -0.10135578 -0.1684023 0.17625202 -0.39046946
-0.2468667 -0.18199067 0.06706724 0.015677625 0.11409076 0.18956707 0.6554695 0.22013342
-0.026048627 -0.062808 -0.0084550055 -0.02016304 0.21056108 0.061537113 -0.23353922 -0.2148863
-0.47823948 -0.40584287 -0.14714175 -0.24930578 0.14494018 0.11025661 -0.015748046 0.16253647
0.013987674 0.09291885 -0.07045001 0.92738426 -0.28823474 0.059864182 0.5503127 0.29714417
0.1181486 0.0949323 0.37428612 -0.12981851 0.1443097 0.038371816 -0.17329027 0.1721136
-0.3558955 -0.28989798 0.5308809 -0.4228928 0.403696 -0.50256115 0.32535633 0.2720964
0.41429308 0.27493414 0.25298327 0.3421018 0.43803528 0.34366003 0.20467801 0.16879182

inc.double_conv.4.bias f4 [16]
00000000: e776 f73d d2b8 2b3e 082f a63e 9b5a c73d
00000010: 4f11 52be fc03 a5bd 0e3c a4be 30bc 1d3d
00000020: e4d4 5a3e 34fa 923e f206 673e 5009 adbd
00000030: 3eba 5abe 4ceb afbd b30f 92be 35a2 8f3e
0.12083226 0.16769722 0.32457757 0.097340785 -0.20514415 -0.080574006 -0.32077068 0.038509548
0.21370274 0.28706515 0.22561243 -0.08449042 -0.21360108 -0.08589801 -0.28527603 0.28053442

inc.double_conv.5.weight f4 [16, 16, 1, 1]
00000000: 9e13 08be 33ae b53e bc17 6f3e 5450 2abe
00000010: d786 743d fd0f 22be be1d 2ebf 7fb8 c5be
00000020: d2f9 a03d 45b7 f73d d3ec 01bc 415c 95be
00000030: 1780 8d3d 1081 233c 54f3 043f e2de cd3e
00000040: d657 45bf 3446 3e3e 3036 103d 85bb 22be
00000050: f141 873e ee7f 403d e456 07be 4f5d 89bd
00000060: 2e48 a5be 8220 5abe 20d9 903d 5063 3e3d
00000070: f254 ec3e 6dbc 9e3e 9daf 8f3d 9b55 9ebe
00000080: 97f2 aebe 58f2 1abf adf6 d63d 6cd5 6f3d
00000090: 3910 2fbc b5d0 d5be 0fdc 913d c53f 85bc
000000a0: d744 5a3e 59e3 943e e665 b73d 199e 6d3e
000000b0: b699 1ebf 47f8 25be 58f7 0cbf d3a7 a43e
000000c0: 49fd 1b3e 5a5f c3be 7180 3d3d 39ba f93e
000000d0: 7844 01be 780a 14be 0817 46be e1ec 863e
000000e0: df66 933e e4ed f83c f3cd b1bd fb47 7d3e
000000f0: 4d76 b2be 3e29 7ebe ffda 95be 4b93 b83e
00000100: 9547 763e 9602 2cbf 120e 85be ea2c 0abe
00000110: 7f50 c93d f88a d8bb 4125 fb3e 8b70 85be
00000120: 6c6e 0abe dd96 133e b17f 66bd af90 94bd
00000130: 3dce 063f 1dbb d63e 5a42 5ebc 8b07 a9be
00000140: 15fc 293f 8e25 323e e927 973d 815b 69be
00000150: 6e71 cdbe a0a7 0dbf 3ee5 f33e e4ed 933d
00000160: 9cf0 ce3d 0e16 b5be 77d2 aa3e fbb6 1b3e
00000170: 4a53 32be 76fb b83c fe9e 5dbf b434 0abe
00000180: 494d 463e d1fa cb3e ee33 07bd ce6c 843e
00000190: e635 ac3d 9c9a a6be 6641 97be cb54 3ebe
000001a0: 43cb c6be 5c2b edbc 42ef dfbc ea57 8dbd
000001b0: 6de2 7b3e 88d5 623e c525 58be a928 9bbe
000001c0: 42e6 b0be 0606 f7be 0bdb 12bd f8c5 53bd
000001d0: c849 a3ba 8496 f13e 6d02 bb3e f3fb 583d
000001e0: 96b1 b43e 485f 84bd 7721 dabc 47f8 173e
000001f0: 469f fe3e 47f0 8bbe 513f e63c e2cb a93e
00000200: 6240 26be f500 623f 6d4c d5bd f736 873a
00000210: 91bf 23bc 7ec6 0ebe b4fc b0be 22d5 dd3d
00000220: 8188 03bd c463 11bf fbd8 9e3d a9dd a13e
00000230: b6e8 4cbf 5537 273d b014 493f 1cba a03e
00000240: cf63 ae3e 8e02 b9bd c2fb a1bc 671b 54bd
00000250: 91c4 0d3f 1333 adbe 9f21 de3e 04d9 373e
00000260: ce3d 8d3e 2e5a 633e da97 3f3e 842e ae3e
00000270: 1be8 37be be64 f1be a73b 6dbc 234c 81bd
00000280: 0acf b03e d941 6f3f 922a 9f3a b2ef 023f
00000290: dfd7 d33a fdde f03c d53e 49be 9638 1cbe
000002a0: 40e0 7f3e f1d6 f33e 282c 3239 8432 a13e
000002b0: c8bb 0cbf 151d 373f 9bb2 f23e ddb3 783e
000002c0: 0665 99bd e5c8 a13e 2c8a 303f fc30 1f3f
000002d0: e777 6c3e f3f7 08be aa1a 113d 0f6a 2d3e
000002e0: 7abd bdbe 2953 3b3e 1cbd c6bd 2782 093e
000002f0: 9b02 4e3d 7762 11be bf70 d93e 7337 1e3e
00000300: 4833 27be 6c48 19be 0b56 af3e 5184 07bf
00000310: af30 0abd 3f63 293f 05bd 22be 03d1 c7be
00000320: 8b1f ef3e 3383 a93d a3ff 153e 1811 a33e
00000330: e497 2d3c 09a9 b6be d13b 20bd a2a0 de3d
00000340: 735e 8dbe acd8 06be 3f82 bc3e e9c4 8bbe
00000350: cf60 9e3e 7c37 063f 5585 16be 452a 4ebd
00000360: 8f49 f8be 2582 9ebe 862f 313d e844 86be
00000370: f43a 1e3e fc8c d93e a59c f63e ae1b 53be
00000380: 59a2 9e3e f6c9 ba3d 11f8 b53d 671b 0c3e
00000390: 9540 cebe b403 02be f920 d03c c3f3 cf3e
000003a0: 9750 c0be 4f43 51be 860e 81be ce8e 10be
000003b0: 57fd 373d 8beb be3e 2f5a 2fbe bc3a 95be
000003c0: 2063 3abe 2fc6 ffbe 1dcb 02be b4f9 7b3e
000003d0: faa2 203f 3540 103d d232 a3be 543c d43e
000003e0: 578f 3b3d 569e 233d 519b 5e3f 2ccc 8e3e
000003f0: 9c5d 44be 935b 79be 5393 5d3e 558c 503d
-0.13288733 0.35484466 0.23348898 -0.16632205 0.059698906 -0.15826412 -0.6801413 -0.38617322
0.078601494 0.12095503 -0.007929998 -0.29171947 0.06909197 0.009979501 0.5193379 0.4020911
-0.7708715 0.18581468 0.035207927 -0.15891846 0.26417497 0.046997003 -0.1321674 -0.0670725
-0.3228163 -0.21301463 0.07072663 0.04648143 0.46158558 0.31003132 0.070159175 -0.30924687
-0.34169456 -0.6052604 0.104962684 0.058553144 -0.01068502 -0.41760793 0.07122051 -0.01626576
0.21315323 0.29079702 0.089549825 0.2320484 -0.61953294 -0.16207992 -0.55064917 0.3215929
0.1523334 -0.38158685 0.04626507 0.4877489 -0.12623775 -0.14457119 -0.19344723 0.263526
0.28789422 0.030386873 -0.0868186 0.2473449 -0.3485588 -0.2482042 -0.29268643 0.36049876
0.24050744 -0.67191446 -0.25987297 -0.13493696 0.098298065 -0.0066083632 0.4905186 -0.26062426
-0.13518685 0.14413019 -0.05627412 -0.07254159 0.52658445 0.4193963 -0.013565624 -0.33013567
0.6640027 0.17397138 0.07380659 -0.22788812 -0.40125602 -0.553339 0.47635835 0.072231084
0.10104486 -0.3536839 0.33363697 0.1520652 -0.17414585 0.022580843 -0.8657073 -0.13496667
0.1936542 0.39839795 -0.03300851 0.2586426 0.08408718 -0.32539833 -0.29542083 -0.18587033
-0.3882695 -0.02895134 -0.027335767 -0.06901534 0.24598093 0.22151768 -0.21108158 -0.3030446
-0.34550673 -0.48246783 -0.035853427 -0.05170247 -0.0012457902 0.47185147 0.36525288 0.052974652
0.35291737 -0.06463486 -0.026627285 0.14840804 0.4973089 -0.27331755 0.028106363 0.33163363
-0.16235498 0.8828271 -0.10414968 0.0010316063 -0.009994403 -0.13942906 -0.34567797 0.108316675
-0.032112602 -0.56792855 0.077562295 0.31614426 -0.8004259 0.040824253 0.7854719 0.3139199
0.34060523 -0.090336904 -0.019773368 -0.051783945 0.5537806 -0.3382803 0.43385026 0.17953879
0.27586216 0.2220237 0.1871027 0.34019864 -0.17959635 -0.47147173 -0.014479554 -0.0631335
0.34532958 0.9345985 0.0012143424 0.51146996 0.0016162357 0.029403204 -0.19652875 -0.15255961
0.24987888 0.47624925 0.00016991852 0.31483853 -0.5497403 0.7152875 0.4740189 0.24287362
-0.07489972 0.31598583 0.68960834 0.6218412 0.23092614 -0.13375835 0.03542582 0.1693499
-0.37058622 0.18293442 -0.097040385 0.13428555 0.050295454 -0.14197718 0.4246883 0.1545084
-0.16328156 -0.14969033 0.34245333 -0.52936274 -0.033737835 0.6616706 -0.15892418 -0.3902665
0.46703753 0.082769774 0.14648299 0.3184898 0.010595296 -0.3567584 -0.039119545 0.10870482
-0.27611122 -0.13168591 0.3681812 -0.27298668 0.30933234 0.5242841 -0.146993 -0.05033328
-0.4849362 -0.30958667 0.043258213 -0.26224446 0.15452176 0.42490375 0.48166385 -0.20616028
0.30983236 0.09120552 0.088852055 0.13682328 -0.40283647 -0.12696725 0.025406348 0.40615663
-0.37561485 -0.20435832 -0.25206393 -0.14116976 0.044919338 0.3728908 -0.17124246 -0.29146373
-0.18201876 -0.4995589 -0.12772794 0.24606973 0.6274868 0.035217483 -0.3187471 0.41452277
0.045790996 0.039945923 0.86955744 0.27890146 -0.19176334 -0.24351339 0.21638231 0.05091508

inc.double_conv.5.bias f4 [16]
00000000: 579b 063e 8c14 7e3e b11f 3ebe f457 563e
00000010: 0fe5 1e3e 652f 0e3c 6811 12be bfe5 0f3e
00000020: 84be e2bd d69c 813d 0cde 963c d66e 103e
00000030: b340 7b3d 82bd 2cbd 6fa9 24be f5b0 a53d
0.13145195 0.24812526 -0.18566777 0.20931989 0.15517066 0.008678292 -0.14264452 0.14052485
-0.11071494 0.06328742 0.018416427 0.1410478 0.061341 -0.042172916 -0.16080259 0.080903925

inc.double_conv.6.weight f4 [16]
00000000: 141f 743f de5e 883f 0b72 763f 5ade 7f3f
00000010: 062c 7a3f 0c9b 583f 4752 8c3f 6e07 6d3f
00000020: 1e63 803f 7eac 703f 2d56 703f 5e16 113f
00000030: f94d 383f f79f 5c3f 28aa 703f 5b75 823f
0.9535992 1.0653951 0.96267766 0.99948657 0.97723424 0.8461158 1.0962609 0.9258946
1.0030248 0.940132 0.93881494 0.56674755 0.71993977 0.86181587 0.9400964 1.0192064

inc.double_conv.6.bias f4 [16]
00000000: cb17 2dbe 947b 403e b4d2 623f 50b4 1f3f
00000010: 84b8 0e3f 1b50 173f b5a4 98be 91f7 693f
00000020: fdb2 9fbd 2d98 ac3e 013b 4f3f 7cc0 50be
00000030: 36c6 573f a895 543f 6c56 1b3d b7d7 5d3f
-0.16903608 0.18797141 0.8860276 0.6238451 0.557503 0.59106606 -0.29813161 0.9139338
-0.07797811 0.3370985 0.8094941 -0.20385927 0.8428682 0.8304086 0.037924215 0.8665728

inc.double_conv.6.running_mean f4 [16]
00000000: eb9f 4e3f 62f5 a1be 2e88 ea3e 2749 4a3f
00000010: 9985 efbe 0ff7 d73e 7242 5dbe aac3 d43d
00000020: e0d3 39bb a9f0 b6bd d4c2 ed3e c81d 983e
00000030: 3b0e 843e 2490 1bbf 373c d6be 3bb3 683e
0.80712765 -0.31632525 0.45807022 0.7901787 -0.46781614 0.42180678 -0.21607378 0.103888825
-0.0028355047 -0.08932621 0.46437705 0.2971022 0.25792107 -0.60766816 -0.41842815 0.22724621

inc.double_conv.6.running_var f4 [16]
00000000: 92de 8b3f 1927 bd3e 251b c43e 5cee b23e
00000010: 67cf d93e a33d 193e 1401 683e 46aa 6e3e
00000020: e8ac 533f ea7b a63e 38f2 9a3e e2a3 d03d
00000030: ee63 d33e 13ff 693e 6929 723e 8c20 ac3e
1.0927298 0.36943892 0.3830196 0.3494748 0.42541048 0.14964919 0.22656661 0.23307142
0.8268571 0.32516414 0.30262923 0.10187508 0.41287178 0.2285121 0.23648609 0.3361858

down1.maxpool_conv.1.double_conv.0.weight f4 [16, 1, 3, 3]
00000000: ddd5 b6be 1fda 0dbe 1900 213e a4c2 adbe
00000010: 7a3d 19bf 7e3a 1c3e 4b1c 85bd c233 263e
00000020: 0a35 ebbd 54a1 b1bd 4085 9e3d 952b 93be
00000030: a35c 873e 778b 5c3e 25db a3bd 4bc9 d53e
00000040: b36e f43e 5492 6e3d 08d2 9ebd 0a6b 603e
00000050: 188a 97be 1ea2 65bd bc43 313f ef58 933e
00000060: c517 b5bd d43c d8bd 25b1 a8be cabf 623e
00000070: 0574 503e 02b1 033e 7952 fabd 88d4 e93e
00000080: 8c2d 7dbd a910 93be 9752 97be 8035 bebe
00000090: 7eef 98bd 1896 01bf 05ad 08bf 265e d2bd
000000a0: 0105 95be 798e 45bd 585a 8e3e 56cc a9be
000000b0: 6a8e a4be 4311 873e ca2b ecbe a3b0 80bd
000000c0: 3830 513d 0feb 66be fcf7 ab3d 6034 033f
000000d0: fa2f 9b3e 2856 9e3e 5191 19be 6756 8fbe
000000e0: 4bd7 8cbe f63d 06be 0f26 7bbe 8ce1 0a3d
000000f0: cecf 2d3e 8a30 373d 4da1 5ebd 6536 9a3e
00000100: 0077 003d c93e 57be 1a21 2bbd 5de7 dd3d
00000110: 14b6 233e 9fa3 c2bd 4b47 fcbe 22c9 83be
00000120: 9fe7 e6be d5dd 9ebe c16f e43d 9359 553e
00000130: 2633 373f daeb 043d abb2 82be 8125 bcbd
00000140: e1d4 aebd d3f1 78be a250 cabe b10a a9be
00000150: 2076 d4be f32d 2cbf 2896 0bbe 234d 833e
00000160: d2d4 31be bd67 c7bd 7add bdbe 0708 c73d
00000170: f53b af3e 53f8 7b3d 880d bbbe 5943 743e
00000180: bffc 03be f915 e1be f529 9b3e 99b2 c2bd
00000190: 8962 143d f250 b33b bf4e a5be 64ab f03e
000001a0: e62c ca3e a7eb a7bc 045a c03d 286f cebe
000001b0: 11f4 d53e c7b9 babb c19c d8be a896 80be
000001c0: 4f8a 09bf dc88 42bf 82aa 973e c60a 9fbe
000001d0: 1795 90be cf50 573e a8d2 d6be 56a2 11be
000001e0: 2df3 c13c c04d f9be 6ba5 e0be c9f2 2d3e
000001f0: 6a67 f0bd 21be 9ebd 1db8 b7be e405 15bd
00000200: 87a8 553e b1ae 1fbe de61 903e 0a04 9ebe
00000210: 392e fabe ea9a 5abe 689f a0be 101a 82bd
00000220: cc3e 11bf abc2 82be bdda aabe 7c44 92be
00000230: 44b0 06be 38e5 cfbd 5805 f8be 4dfa 91be
-0.3571004 -0.13852738 0.15722694 -0.33937562 -0.5985943 0.15256688 -0.06499537 0.16230682
-0.11484726 -0.08673349 0.07740259 -0.28744188 0.26437864 0.21537577 -0.08000783 0.41755137
0.47740707 0.058245018 -0.07754904 0.21915832 -0.29597545 -0.05606281 0.6924398 0.28778788
-0.08842424 -0.10558477 -0.3294765 0.22143474 0.20356758 0.12860492 -0.12222762 0.4566996
-0.061811015 -0.28723648 -0.295552 -0.37150192 -0.074675545 -0.5061965 -0.53389007 -0.10271864
-0.2910538 -0.048231576 0.27803302 -0.33163708 -0.32139903 0.26380357 -0.46127158 -0.06283691
0.051071376 -0.22550605 0.08396909 0.5125179 0.3031004 0.30925107 -0.1499684 -0.27995607
-0.27508005 -0.13109574 -0.24526237 0.033906505 0.16973802 0.044724025 -0.054353047 0.30119625
0.031363487 -0.21020044 -0.041779615 0.10835145 0.15987426 -0.095038645 -0.49273142 -0.2573939
-0.45098588 -0.3102862 0.11154128 0.20834951 0.7156242 0.032451488 -0.25526938 -0.09186841
-0.08536697 -0.24310999 -0.39514643 -0.3301597 -0.41496372 -0.6725761 -0.13631499 0.25644788
-0.17366341 -0.097365834 -0.37083036 0.09718328 0.3422543 0.061516117 -0.3653376 0.23853816
-0.12889384 -0.43962076 0.30305448 -0.09506721 0.036226783 0.005472296 -0.3228664 0.4700576
0.3948738 -0.02049811 0.09392169 -0.4031918 0.4178777 -0.005698416 -0.42307094 -0.25114942
-0.5372667 -0.7599008 0.29622275 -0.31062907 -0.28238747 0.2102692 -0.41957593 -0.14222082
0.023675526 -0.4869213 -0.43876204 0.16987146 -0.11738475 -0.07751108 -0.35882655 -0.03638257
0.2086507 -0.15593983 0.28199667 -0.30862457 -0.4886339 -0.21348158 -0.31371617 -0.06352627
-0.56736445 -0.25539145 -0.3337001 -0.28567874 -0.13153177 -0.10151142 -0.48441577 -0.28511277

down1.maxpool_conv.1.double_conv.0.bias f4 [16]
00000000: c678 fc3d a530 50be 2700 d2bc 3853 43be
00000010: ae2c a93e 0e8e 41be ca1f 0ebe d26e 93be
00000020: b9e7 773d fb0b ae3d aa27 913e 96e1 87be
00000030: 2987 213e 5f39 cdbc 1a2a 8e3e d83a 28be
0.12327723 -0.20331056 -0.025634838 -0.19074714 0.330419 -0.18901846 -0.13879314 -0.28795487
0.060523722 0.08498379 0.28350574 -0.26539296 0.15774216 -0.02505177 0.27766496 -0.16428697

down1.maxpool_conv.1.double_conv.1.weight f4 [32, 16, 1, 1]
00000000: d781 92bc d383 563e 4e07 9a3d 8cc4 6f3e
00000010: c6cc 933e d8ad bb3e 49cd 5e3d bb84 53be
00000020: f3e8 9cbb cc09 ca3e 6977 9d3e 2785 3b3d
00000030: d7bb 3cbf 9d74 683e 5c66 d6bd f8f2 e5bc
00000040: 8ff3 34be 8c43 89bd 2b80 85bd 96ab 2f3e
00000050: 929e 933d dd20 993d 25d0 243e 07c6 af3e
00000060: 96e1 a13e 1fff cb3e b9ce 2c3c d7b3 043f
00000070: 0a50 afbc d8b1 bdbe efa8 e3be 5382 8c3e
00000080: fbd7 9abc ed5c 98bd e31e e63c d33f 3dbf
00000090: e28c 54be cbf7 56be d0ca 913d aa61 0abf
000000a0: f09b 453d 3cfd 17bf 701e 6b3e 720d f6bc
000000b0: 8a8e 033e 76d4 ebbc d3d8 f23d 871a b03d
000000c0: b470 1c3e c44c 5cbd ce50 4a3e 2c75 8e3e
000000d0: 7d52 a6bd 0754 9abd bf7b d53d 2e8c 99bd
000000e0: 44c0 a73e f897 d3be 4a1a d03e 9fa4 593e
000000f0: 6140 eabe a313 013f a48b f6be de99 64bd
00000100: e515 a93d 4609 70be 754a 3bbe e02f 953d
00000110: ed9f ebbe d66b efbb fe1c ceba 416d 6a3e
00000120: f4a5 d8be 20ab f9be cb9c cebe 05c5 6dbe
00000130: 4492 8a3e 03c7 313e 0c0c cabd d915 f63d
00000140: 4178 6cbe 47ea dfbe a6ed b5be 3b1f efbe
00000150: d648 1e3e a31d 53be 2d93 25be a571 a1be
00000160: b4d1 3b3e ae4b df3d 604e 563e f758 c0be
00000170: 0f24 8abd e88e 0d3e 45a0 63bd 8f6e 62be
00000180: 4e38 3bbe 0f65 2fbd 6af6 ddbe 2513 023e
00000190: 07fb e93e 5349 d03e b6b6 dd3d fca9 c6bd
000001a0: c5a3 a3be 9f62 84be a0d4 c9bb 1b6e 92be
000001b0: 77ae 76bd 9493 fe3d 2777 a3be 3436 123f
000001c0: 0b69 c23e 2298 7fbe 9fe1 ac3c b7a2 e73c
000001d0: 2b33 7a3a aa7b 3d3e 30ae dfbd f90b 763e
000001e0: 3064 863e 7956 5dbe 8e99 0a3e efd4 ffbd
000001f0: 596d 01bf 0d17 a93d 2922 d33e b7b2 b0be
00000200: 82ee 943e 5807 b23e 56a5 ef3d 387a 303f
00000210: 8535 043e a48f aabd 8892 ab3e f37e b23e
00000220: c3db c53e 9648 41be 085a 8b3e 111d 8ebe
00000230: 7911 26be 6664 5b3f d7b3 813d 8a73 b43d
00000240: 203a 71be 4f67 dcbc 337e b0bd f7c5 923d
00000250: 74fc 383f 4c26 0ebd fb39 94bd d7a9 923e
00000260: 7857 cc3e 30d5 0f3f ed3b 193e 8dec 843e
00000270: 43cb 533e 627f 70bd 35a4 983d c687 a7be
00000280: d278 a53e 1466 293d a8da 1dbe 7792 babe
00000290: b662 a3bd 96e8 193e 4474 87bd ac1d 63be
000002a0: a450 2fbe 563e 34be e7fc 323e 061f b0be
000002b0: 85cf 623e 22e4 01bd baeb f0bd 20bd 0dbf
000002c0: a5e9 45bd b895 0bbe 7d21 e53e 975c 13be
000002d0: cc1d 363f cb35 523e 2ca5 983e 23e9 8b3e
000002e0: 1d70 cb3e 751b a8bc a918 a5be c862 8f3d
000002f0: b976 2a3e c667 91bd e0e1 38be 00c1 603e
00000300: c7d8 c2bd 53af da3e bf46 243e 93a5 853e
00000310: 1b10 ca3e f30d cdbe cf78 47be e7ad 9fbe
00000320: b952 afbd f284 d1ba cf40 d7be e7a9 a0be
00000330: b6f2 0ebd 137f f43e 7b97 223e 3c66 0fbe
00000340: 4c20 8bbe 3111 4c3e b6fc 863e 1a8b b6bd
00000350: 9221 d93d 3087 d03d 6f7d 16be 754b abbc
00000360: 639a c33d 0dda 6fbd f9d1 cb3b f029 443e
00000370: 9dd2 c3be dab6 c9bd 14d2 f33c 03c6 1c3f
00000380: 2b07 a03d 83bd a13e bf05 36be c561 b6be
00000390: 7305 da3e a514 b23c 544f f0bd 8fa1 babe
000003a0: e750 d0bc ca27 5f3e 3cc1 253d 22c4 013f
000003b0: 2749 79be 37eb 3c3e 61aa 143e d05b b63e
000003c0: 8a21 13bf d5e5 603d 5a4b adbd e911 9b3c
000003d0: 168a 633c 60de d33e eb2e 9ebd aa2b 98be
000003e0: 1d27 24be 1d91 f5bd 9fef 02bf 0090 bb3d
000003f0: c78a 59be 11e5 d53e e682 05be 577a e0bd
-0.017884178 0.20948724 0.075209245 0.2341482 0.28867167 0.3665607 0.054394994 -0.20656101
-0.004788512 0.394606 0.30755165 0.04578128 -0.7372412 0.22700734 -0.10468742 -0.028069958
-0.17671035 -0.06702337 -0.06518587 0.17155299 0.07207979 0.07476971 0.16095026 0.3433077
0.3161742 0.3984308 0.010547333 0.51836914 -0.02140047 -0.37049747 -0.44464824 0.2744318
-0.018901816 -0.07439599 0.0280909 -0.73925513 -0.20756868 -0.20992963 0.071187615 -0.54055274
0.048244417 -0.5937078 0.2296083 -0.030035708 0.12847343 -0.028787833 0.11857762 0.0859881
0.15277368 -0.053784147 0.19757387 0.2782377 -0.08121202 -0.07535558 0.10423993 -0.0749744
0.32763875 -0.4132688 0.40645057 0.21254204 -0.45752242 0.5042059 -0.48153412 -0.0558108
0.08256129 -0.23441038 -0.18290122 0.07284522 -0.4602045 -0.007306556 -0.0015725193 0.2289324
-0.42314112 -0.4876337 -0.40354 -0.23219688 0.27064717 0.17361073 -0.09865579 0.12015886
-0.23092748 -0.43733427 -0.35532874 -0.46703514 0.15457472 -0.20616774 -0.16169424 -0.31532016
0.18341714 0.10903107 0.20928335 -0.37567875 -0.06745159 0.13824046 -0.055572767 -0.22112487
-0.18283197 -0.042820986 -0.43352062 0.12702616 0.4569933 0.40680942 0.10825865 -0.09700391
-0.31960884 -0.25856492 -0.00615938 -0.2859963 -0.060224976 0.12430492 -0.31926844 0.5711396
0.37970766 -0.24960378 0.021103678 0.02827583 0.0009544368 0.18504205 -0.109218955 0.24028005
0.26248312 -0.21615018 0.13535139 -0.12491786 -0.50557476 0.0825635 0.41237 -0.3451135
0.29088217 0.34771228 0.11701457 0.6893649 0.12911041 -0.083281785 0.33510232 0.3486248
0.38644227 -0.18875346 0.27217126 -0.2775655 -0.16217603 0.8570007 0.0633313 0.088111
-0.23557329 -0.02690473 -0.086178206 0.07166665 0.7226021 -0.03470449 -0.072376214 0.28645203
0.39910483 0.56184673 0.14964266 0.25961724 0.20683007 -0.05871523 0.07453195 -0.32720774
0.3231874 0.041357115 -0.15415442 -0.3643987 -0.07977812 0.1503013 -0.06613973 -0.22179288
-0.17120606 -0.17601904 0.17479287 -0.3439867 0.22149475 -0.031711705 -0.11763711 -0.55366707
-0.048318524 -0.13631332 0.44752112 -0.14390789 0.71139216 0.20528333 0.29813516 0.27326307
0.39733973 -0.020520905 -0.32245377 0.07001263 0.16646852 -0.07099871 -0.18054914 0.21948624
-0.09514003 0.42711887 0.16042612 0.26102886 0.39465412 -0.40049705 -0.19479679 -0.31187364
-0.085607 -0.0015985055 -0.42041633 -0.31379625 -0.034899436 0.477532 0.15878098 -0.14003843
-0.27173078 0.19928433 0.26364678 -0.0891325 0.10602106 0.10182035 -0.14696287 -0.020910004
0.09550931 -0.05855756 0.006220099 0.19156623 -0.38246623 -0.09849329 0.029763259 0.6123964
0.07813867 0.31589898 -0.1777563 -0.35621467 0.42582282 0.02173836 -0.11733881 -0.36451384
-0.025429202 0.21792522 0.040467486 0.506899 -0.24344312 0.18449102 0.1451812 0.35616922
-0.5747305 0.054906685 -0.08461638 0.018929439 0.013887903 0.41380596 -0.07723793 -0.29720813
-0.16030546 -0.11990569 -0.5114688 0.09158325 -0.21244346 0.41776326 -0.13038215 -0.109608345

down1.maxpool_conv.1.double_conv.1.bias f4 [32]
00000000: b3ea 13be d519 c6bd 0b75 9a3d e76a 413e
00000010: d234 6ebe 295d 0bbe 433f 0b3e 97b7 e13c
00000020: 8872 7fbe 9435 763e 2f30 c2bd 18d3 263e
00000030: 346b 49be f731 58be f615 09be 0835 3fbe
00000040: 8330 4d3e 6ef9 613c 23db fb3d 8736 c6bd
00000050: 8ab5 55be b490 d4bb 2a5f 313e 8657 3b3e
00000060: a1a0 123e 3184 47be 0df8 243d 102d 4b3e
00000070: 700b cebd d8bd 213e d30e 0ebd aae4 573e
-0.14445 -0.09672896 0.075418554 0.18888436 -0.23262337 -0.13609757 0.13598351 0.027553363
-0.24946034 0.24043876 -0.094818465 0.16291463 -0.19669801 -0.2111281 -0.13387284 -0.18672574
0.20038037 0.013792379 0.122976564 -0.09678369 -0.20870033 -0.0064869765 0.17321458 0.18295106
0.14319088 -0.19484021 0.040275622 0.19841409 -0.10060775 0.15795076 -0.034682106 0.21083322

down1.maxpool_conv.1.double_conv.2.weight f4 [32]
00000000: b8b9 573f 8c22 8f3f 3942 573f 9e3d 7e3f
00000010: a3f3 a13f afe0 4a3f 6aca 843f 76d5 803f
00000020: 0d23 9b3f 1a63 993f 33a6 893f 699a 813f
00000030: 6428 7a3f 046b 9f3f cbf1 883f 9405 813f
00000040: 2f91 953f 7f2c 8f3f 91c5 8d3f 2c91 8a3f
00000050: 50fb 7a3f f352 713f 5add 783f b68b 833f
00000060: 4ab1 ae3f f754 743f b6e1 873f a95b 913f
00000070: 95de 803f cf89 8a3f 30a4 8f3f 99f9 a63f
0.8426776 1.1182418 0.8408542 0.9931277 1.2652477 0.7924909 1.0374272 1.0065143
1.2120072 1.1983368 1.0753845 1.0125247 0.9771788 1.2454534 1.0698789 1.0079827
1.1684932 1.1185454 1.1075917 1.0825553 0.9803972 0.94267195 0.97212756 1.0277011
1.3647854 0.95442146 1.0615757 1.1356097 1.0067927 1.0823306 1.1221981 1.3044921

down1.maxpool_conv.1.double_conv.2.bias f4 [32]
00000000: 9154 a6bd 31b5 733c 106e 85be 4f38 ce3d
00000010: 1d54 7cbe 891e b0bb 568e 4b3f 5fc1 6bbd
00000020: c0ef adbd bec5 793e b3c2 8a3e 05bd 023f
00000030: f21f 623e b105 82bd c4ab 44bd 9695 10be
00000040: 895b 193e ee32 363e fb83 943e 5765 953e
00000050: d7e0 d43e 2c8b 1d3e 91ac 033f 48c2 463f
00000060: 7a11 a0bc 491c a13e 432b dd3d 5661 ab3d
00000070: 99cf 0fbe 681d c13e ee70 efbb 71ab a23e
-0.081215985 0.014874742 -0.26060534 0.10069334 -0.24641462 -0.005374734 0.7951406 -0.05755746
-0.08492994 0.24391839 0.2710167 0.5106967 0.22082499 -0.06348742 -0.04801537 -0.14119563
0.14976324 0.17792866 0.29006943 0.2917888 0.4157779 0.15385121 0.5143519 0.776402
-0.019539583 0.31466892 0.10799267 0.08368175 -0.14044036 0.37717748 -0.0073071634 0.31771424

down1.maxpool_conv.1.double_conv.2.running_mean f4 [32]
00000000: d6e9 c93e f839 9dbf edcc 863f 331d 6b3f
00000010: 6208 fbbe e749 b53e 9709 c9bf 6924 d63f
00000020: 3d29 dbbf 1a63 4dbf 98f2 df3f 4a81 b8bf
00000030: 4f95 06bf bf0f 7abf a4ce afbf e276 003f
00000040: 32ed cbbd e96b 9abf 24b7 fabf e8f0 acbf
00000050: c1b6 e1be edb2 ca3f 26cd 40bf 061e 233f
00000060: 4d2d e8be b172 1a3d 9714 eabf 24fe d2be
00000070: 43fb 4d3f 609d 0a3f 29b5 11be 0e1a 87bf
0.39436215 -1.2283316 1.0531288 0.9184143 -0.49029833 0.35407946 -1.5706052 1.6729861
-1.712196 -0.8022934 1.7495909 -1.4414456 -0.52571577 -0.97680277 -1.3734937 0.501814
-0.09957351 -1.2064182 -1.958714 -1.3511019 -0.44084743 1.5835854 -0.7531303 0.6371769
-0.45347062 0.037707034 -1.8287534 -0.4120952 0.8046152 0.54146385 -0.14229263 -1.0554826

down1.maxpool_conv.1.double_conv.2.running_var f4 [32]
00000000: 3f0c 503f 9dd0 ee3e 8abe fd3e ddc9 073f
00000010: ee8a 673f f95b 1b3f 6b82 bc3f 5c62 223f
00000020: 6ccd e23f 0a10 983f 7362 d33f f3b3 c33e
00000030: 0ab0 343f ceb3 9e3f f879 413f 94f6 f53f
00000040: d71a 213f 572c 003f 04f1 943f 1171 a83f
00000050: 0c7e 0f3f 7884 ba3f f1a5 723e 8391 423f
00000060: 34dc 793f 3296 033f 963e 3b3f e9d1 ac3f
00000070: 02f3 243f c8c7 083f 6848 fc3f 04c3 163f
0.81268686 0.46643534 0.49559432 0.53042394 0.90446365 0.60687214 1.47273 0.63431334
1.771894 1.1879895 1.6514419 0.38223228 0.70581114 1.2398622 0.75576735 1.9215875
0.6293158 0.5006766 1.1636052 1.3159505 0.5605171 1.4571676 0.23696114 0.76003283
0.9760163 0.51401055 0.73142374 1.350156 0.644333 0.5342984 1.9709597 0.5889132

down1.maxpool_conv.1.double_conv.4.weight f4 [32, 1, 3, 3]
00000000: 066a 953e 686e de3e 7604 863e 1122 afbd
00000010: 96b1 30be 08e3 0bbe 51ec a23e bfcc 87be
00000020: 4819 783e 1ca7 dfbb 1ac9 f33e b162 fa3d
00000030: 5435 ffbe 070d efbe 30bb 9fbc 7d75 3bbe
00000040: ab30 483e 6e2a c0bb 7aa9 c63e 2497 733e
00000050: a5dc 943e dcb7 cabd bfc9 d0bc fb4c 12bd
00000060: d938 f5bd 4879 fdbd 5cbe b03e 9b6a 533e
00000070: f3dd 9bbe 6974 073e be5f 143f 7abf 583e
00000080: e04e 043e 203d aa3e 1527 80be 99cf a03d
00000090: e5e8 d53e 1980 e5bd 4d8e 28bf 36ae 8abe
000000a0: 2ead d4be ca8d f8be d6e1 3dbe a854 18bf
000000b0: 7360 9cbe 9e7f 39bb b62d 30be d140 a6bd
000000c0: fbb6 ea3e f0fa dc3e 94b5 4fbe 97f5 b0be
000000d0: 2e3f 8bbe 3a6c 82be 49c9 54bd fe7e e83e
000000e0: 9352 173f 1d48 88bd 2dcf 2f3f 9116 813e
000000f0: fcf7 b8be 6abe a83c 87e4 dd3d f8a7 8fbe
00000100: 28a9 afbe bc6a 053e bff0 98be ac01 c43c
00000110: 19f6 febe b695 a6be 98a5 7abd f743 e5bd
00000120: e786 09be 604a 1abf cdf2 7abe ad9b 83be
00000130: b419 1abf c154 d8be df74 c53e a421 9fbe
00000140: 541f 90be 7b9c f8be f001 fe3d 81ed b8be
00000150: 5c7b 79be e03f d93e 1144 7e3e fdf8 803c
00000160: c1f3 0b3f d718 78bd b14a 1a3e b0ad 27bf
00000170: ae82 60be 5582 a83e 13d2 fbbe b664 dd3c
00000180: 0aa3 123e 3ac4 713e a72a fc3d 310b a23e
00000190: ac33 953e 8151 66be 619c 0d3e 3e90 7ebe
000001a0: 4aec 18bf f0ec b13e c66e b93d a57d 583d
000001b0: d033 39bd c276 27bd 6125 003f 8c18 d3be
000001c0: 9f0b 33be dcf4 563e f4e6 92bd 0194 afbe
000001d0: 0702 00be f11c 613d c415 08bf a210 34be
000001e0: f670 203e b0a0 40bf 0e77 15bf 87c5 733e
000001f0: 844e 69be 89e6 823c 1e3e cd3e 45bd 093f
00000200: a04c e9bd 4948 0fbe dd32 b5bd 2565 91be
00000210: 0a1c 2f3b faf3 bdbe e502 44be bc1b e4bd
00000220: cc18 b63e 7a9f 623e 2846 d0be 7910 ce3e
00000230: 32b9 86bd fc49 85be 1c3f 9d3e e123 183e
00000240: f4d5 6c3d 023f 1d3d 48ea b03e 0092 bfbe
00000250: 99f4 033f 7f63 813e 091c c93d 428d a83e
00000260: 7434 703e a932 1cbc fb8d 1f3f 64bb c33e
00000270: 6055 00bd 8f5c 093e 0561 8a3d 419e 96be
00000280: 8614 f9bd ab89 d53e c985 eab9 4539 933e
00000290: 9b95 783e ef88 843d 0b4d 123f 4199 f43d
000002a0: dd60 21be 59d5 cf3e c6ae 653e e104 04bf
000002b0: 6f32 13bf baf2 cbbb 107c c3be 0b9c 0d3e
000002c0: c6a5 373a 15a2 8cbe 0176 54be 5056 333d
000002d0: 13a9 3e3e 2c4a 973d 57ce 5d3e 46de 90bb
000002e0: e17b 20bf 8134 84be dfeb 823e 778f 09bf
000002f0: 9a6f 46be 6aec fc3d 2485 8cbe 71b4 a2be
00000300: 742c e1be c014 f0be a68c e4bc 90ff a33d
00000310: 6524 413e 8726 80be d28d 193c b0b3 d23e
00000320: 34c4 3bbe f87c 97bd 0bbb 05bf b6c0 6fbd
00000330: 3d5b c63e 702b c53e 80f8 19bd d4c1 08be
00000340: e171 52bd 1bd7 1b3e 36da 033e e78b 17bf
00000350: f994 cfbe 5f62 83bd 29fa ccbd 8166 cb3e
00000360: 1d11 2f3f fe52 803e 22d1 20be 3624 173d
00000370: 3b42 94be 1d61 20bf 9d67 173e 9db4 4dbe
00000380: 0adc 03bf 1962 263e 9b28 d43e ab84 df3e
00000390: 8485 203e 1fc9 de3b 4506 653e 65bc 063e
000003a0: e3f1 c3bc 6bad 713d d8d3 0abf 28d5 f5be
000003b0: 7d4f c4be fd51 39bd de1c 54bd 07e9 d93d
000003c0: 43c2 07be f6e1 a7bc 5ee6 af3d 453e bfbe
000003d0: 993e c7be a3fa 9abe 75db f1bd 161a 8a3c
000003e0: a50d fabe a576 ccbe afce 90be 048b fbbe
000003f0: 27d6 e4be 6af9 a43e 968d eebd 5eb4 adbe
0.29182452 0.43443608 0.26175278 -0.085514195 -0.17255244 -0.13660824 0.3182092 -0.26523396
0.24228394 -0.006825341 0.47614366 0.12225855 -0.49845374 -0.46689627 -0.019498438 -0.18306537
0.19549815 -0.005864433 0.38801175 0.23788124 0.29074588 -0.0989835 -0.025486825 -0.035717946
-0.119737335 -0.12376648 0.34520233 0.20646136 -0.3044277 0.13228 0.5795859 0.21166793
0.12920713 0.3324976 -0.25029817 0.07852096 0.41779247 -0.11206073 -0.65842134 -0.27086037
-0.41538376 -0.48545676 -0.18543181 -0.59504175 -0.30542335 -0.0028304826 -0.17204937 -0.081178315
0.45842728 0.431602 -0.2028411 -0.3456237 -0.2719664 -0.25473195 -0.051949773 0.45409387
0.59110373 -0.066543795 0.686755 0.2521253 -0.36126697 0.020598609 0.10834604 -0.28057837
-0.34308743 0.13028997 -0.29871175 0.023926578 -0.49797133 -0.32536095 -0.06119308 -0.11194604
-0.13430367 -0.6026974 -0.24506684 -0.2570471 -0.6019547 -0.42252162 0.38565728 -0.31080353
-0.281489 -0.48556885 0.12402713 -0.361187 -0.24363464 0.42431545 0.24830653 0.015743727
0.54668814 -0.060570564 0.15067555 -0.654994 -0.2192485 0.32911935 -0.4918371 0.027025562
0.14320007 0.2361001 0.12312823 0.31649163 0.29140985 -0.22492029 0.13829185 -0.24859712
-0.5973555 0.3475108 0.090543315 0.0528542 -0.045215428 -0.04088474 0.50057036 -0.41229665
-0.17484902 0.20991844 -0.07172957 -0.34292606 -0.12500773 0.05495924 -0.5315821 -0.1758447
0.15668091 -0.7524519 -0.5838479 0.2380582 -0.22783858 0.015979068 0.40086454 0.5380443
-0.11391568 -0.13992418 -0.08847592 -0.2839748 0.0026719593 -0.37100202 -0.19141729 -0.111381024
0.35565794 0.22131148 -0.40678525 0.40246943 -0.06578292 -0.26033008 0.3071221 0.14857437
0.05782123 0.038390167 0.34553742 -0.37416077 0.515451 0.25271222 0.098198004 0.3292027
0.2345751 -0.009533563 0.6232602 0.38228905 -0.03133142 0.13414215 0.06756786 -0.29417613
-0.12162118 0.41706595 -0.00044731636 0.2875463 0.2427582 0.064714305 0.5714881 0.11943293
-0.15759607 0.4059246 0.22429952 -0.51569945 -0.5749883 -0.0062240036 -0.3818059 0.13829057
0.0007005598 -0.2746741 -0.2074814 0.043783486 0.18619184 0.07387194 0.21660744 -0.0044210283
-0.62689024 -0.25821307 0.2557058 -0.53734535 -0.1937851 0.1234978 -0.27445328 -0.3177829
-0.43979228 -0.4689083 -0.027899098 0.08007729 0.1886154 -0.25029394 0.0093721915 0.41152716
-0.18336564 -0.07396883 -0.5223853 -0.058533393 0.38741484 0.38509703 -0.037590504 -0.1335519
-0.051378135 0.15218775 0.1287621 -0.5919785 -0.40543345 -0.06415247 -0.10008652 0.39726642
0.6838549 0.25063318 -0.15704778 0.036899768 -0.2895678 -0.62648183 0.14785619 -0.2008843
-0.5150763 0.16248359 0.4143723 0.43655905 0.15675932 0.006798878 0.22365673 0.13157804
-0.023919052 0.059003275 -0.542295 -0.48014188 -0.38341895 -0.045244206 -0.051785342 0.106401496
-0.13257699 -0.020493489 0.08588861 -0.37352195 -0.38914946 -0.30269346 -0.11809436 0.016858142
-0.48838535 -0.3993427 -0.28282687 -0.49129498 -0.44694635 0.32221538 -0.11648099 -0.33926672

down1.maxpool_conv.1.double_conv.4.bias f4 [32]
00000000: 0bef 30bd 3573 573e 77d0 8abe 5d93 eabc
00000010: 11a5 073c 9f33 acbc 08d9 3fbd 5f9a 793c
00000020: eca1 3b3e 9190 5b3e 4ff4 d13d 3b28 32be
00000030: e11a e43d 3e54 113d 48cf 5abe aca0 aa3d
00000040: 2cf0 64be 2f3e bbbd ed18 a5bd 2033 043e
00000050: a6cc 55bd 5a86 2dbe 9963 0b3e 1fe2 f1bd
00000060: 77d6 863e 9b79 22be dffc 8cbe c756 d13d
00000070: 7354 a03e 2753 8b3e 1d4e 323e 8047 aa3e
-0.04319672 0.21040042 -0.2711217 -0.028634721 0.008279101 -0.021020709 -0.046837837 0.015234559
0.18323487 0.21441866 0.10251676 -0.17398159 0.11137939 0.03548073 -0.21368134 0.08331427
-0.22357243 -0.0914272 -0.08061395 0.12910128 -0.05219712 -0.16945782 0.13612212 -0.11810707
0.263355 -0.15866701 -0.27536675 0.102216296 0.3131443 0.27211878 0.1741261 0.33257675

down1.maxpool_conv.1.double_conv.5.weight f4 [32, 32, 1, 1]
00000000: df25 9a3e 8da8 92be d011 843e 2c0c 083c
00000010: 6bc4 36be 3bd8 c2bd 2184 103e 417a c73e
00000020: d765 9c3e 2168 7abd 4409 5f3e 3905 eabe
00000030: 5574 643c cc93 e4be ae29 1c3f 46aa ca3c
00000040: 9f24 e63e 9ce8 8a3d c85d e33e aa19 e5bc
00000050: 6637 903e 7940 d33e 00bd 733d 3002 3abd
00000060: 430f e2be 4152 81bc 17e5 40bd 05a6 40bc
00000070: 04c7 1fbc 0e01 083e c0f0 db3d fd0e 0abe
00000080: 81cf d73e 928d ba3e cd9c 943d 624d dbbe
00000090: 22f9 563e bcb2 0fbe 836f 86be 50d7 c13e
000000a0: 3a4d 063e ee67 dbbe 3b72 153e 94a1 88bd
000000b0: a8d5 a43e 94b1 f0be 9527 c4bd 8543 86bd
000000c0: ed97 c0bc 7cc8 853e fcf0 4ebe f592 9cbd
000000d0: 379a 2abd ed74 1f3e 5121 b8be 7b2e 903e
000000e0: 6897 c4bc 2534 1cbe 8cdb a53e c0cd e93c
000000f0: 72ee 86bc 9bfa 273e 1483 023e 69ce 95be
00000100: fee1 77be 62c8 8a3e 5ca2 dfbd 52cc 3cbe
00000110: fc60 7e3e bfc0 32be 83ce 943e ad25 333e
00000120: dacb 3bbe 5372 a1be c81e d13e d9f7 3fbe
00000130: 955c 633d b875 5cbf 4399 01be 15f8 b23d
00000140: 7391 5a3d fea6 0f3f 7fb5 1dbe a3a5 893e
00000150: e6fa 393e b7a3 813e 2a93 eb3d 5ced 563d
00000160: c9bc 97bd 4e23 32be e736 4f3d ca0c 43be
00000170: a6bb 5ebd 1299 efbd c87d 283d 9bed 39bc
00000180: 4dd2 c53d 60e2 8dbe bffe 9dbe c91d dabe
00000190: 25b6 e9be c624 b43a 239f 873e 2223 0fbd
000001a0: e3e4 00bd dccb 85bd 0ac9 7b3e 774b df3e
000001b0: a795 87bd d9d2 47be 91fe 24be 7897 163e
000001c0: 855b 7dbd c652 623e a9bb 8a3d 0d2e e0bd
000001d0: 7490 5e3e d7c9 1c3e 92c9 9d3d e220 5cbe
000001e0: 3d32 1ebe 22a8 a63e dbf1 5bbe 39de 983e
000001f0: 30c0 4a3e a6a4 b1bd 64f5 dcbe dd60 573e
00000200: 66fc 62bd ff32 463e b8f7 6cbe 9ac7 bc3e
00000210: 9ff7 2cbd ee76 4e3e 72d5 eabe 49f3 9bbe
00000220: 9b8c b3be 2964 ce3d 7570 e8bd 3aa9 11bf
00000230: f043 0b3d d476 123f 5ac5 d339 0a18 173e
00000240: ea15 f0bd 09de 003e 4416 d1be 6459 d43d
00000250: 135c fbbd 0b0b 243e 7efb 75bd acad 6b3e
00000260: e3a3 4bbe da26 03be b156 de3e bd25 96bd
00000270: 22c2 63be 9e24 68be 143c 05bd 2260 acbd
00000280: a89c fcbc 38e6 b5be 8d2d b2be 5551 51be
00000290: 2bc3 4e3e 818e 91be b211 a2be ff5a 1c3e
000002a0: 7e80 a4be d7e8 06be 0622 9b3e e149 d4be
000002b0: 5b84 2f3f a9fc 713d 0ab5 773d a51d 0f3e
000002c0: c362 7f3d 3675 f53e 51ec adbd 7856 7d3d
000002d0: 01d9 c9bd efab e1bb 4bf3 e13d c912 f2bd
000002e0: 96c6 bcbd 80c5 b0be 1d3e e7bd 13cd 853e
000002f0: 698f fe3d 1ed7 e63c f9ea d93e 1d02 44be
00000300: 59a8 3cbd 0e19 a83d d8ad 513d 5748 edbd
00000310: e761 753e d8c6 a23e 9ee2 fbbd 86b3 55bb
00000320: 5914 623b 6f3e 69bd e0f5 66be 5727 1c3e
00000330: fb01 11bf a52e 063d 1c25 03be 7114 c33e
00000340: 9296 ba3e 40c1 de3d 1483 333e 98cd 91bc
00000350: a867 cb3e ec1f 583e ace9 8abd c83f 6abe
00000360: a291 1ebf b284 043e 6bf1 83be 3386 30be
00000370: df9e 143d b496 bbbe 5b26 223f e790 8abd
00000380: ffb8 c03e 7ec1 fcbc 2d0a 9abc c35f babe
00000390: 2849 b93e 6cbb ea3c 53b8 8dbd 3317 843c
000003a0: 004b 0cbe 4ecb a03d 8b96 58be 5171 993e
000003b0: dd35 acbd 37c8 223e fd90 2bbb a232 2ebe
000003c0: 9fc2 a33e 43a4 c43e 99fc 7c3e 7e5d bbbe
000003d0: 4b1f 9d3e 43d5 893d 62fa 6e3c bf91 863e
000003e0: 2c68 a93e 9ca7 4bbe e511 c03e 0cf3 c1be
000003f0: 4354 3dbf e15d ddbe 038c 21be 42d4 efbc
0.30107018 -0.2864422 0.2579484 0.008303683 -0.17848365 -0.09513899 0.14112903 0.3896046
0.30546448 -0.06113446 0.21780878 -0.4570711 0.013943751 -0.4464401 0.610011 0.024739396
0.44949815 0.06782648 0.44407487 -0.02796634 0.28167266 0.41260126 0.059506416 -0.045412242
-0.4415227 -0.015786292 -0.047093477 -0.011758332 -0.009752039 0.13281652 0.10739279 -0.1348228
0.421505 0.36436135 0.0725647 -0.42832476 0.20993474 -0.14033026 -0.26256952 0.37859583
0.13115397 -0.4285273 0.14594357 -0.066714436 0.32194257 -0.4701048 -0.09577862 -0.06555847
-0.023509944 0.2612952 -0.20209116 -0.07645217 -0.041650977 0.15571947 -0.35962918 0.28160462
-0.023997977 -0.15254267 0.32394063 0.028540492 -0.016471121 0.16404192 0.12745315 -0.2925904
-0.24207303 0.27106005 -0.109196395 -0.18437317 0.24841684 -0.1745634 0.29063806 0.17494841
-0.18339482 -0.31532535 0.40843797 -0.1874689 0.055508215 -0.86117125 -0.12656121 0.08738724
0.053361367 0.56114185 -0.15401267 0.26884183 0.18162116 0.25320217 0.11502679 0.052472457
-0.07409055 -0.1739628 0.05058947 -0.19047847 -0.054378174 -0.11699118 0.04113558 -0.011348153
0.09659252 -0.27711773 -0.30858418 -0.4260085 -0.45646778 0.001374387 0.264886 -0.034945615
-0.031468283 -0.06533024 0.24588409 0.43612263 -0.06620341 -0.19514026 -0.16112734 0.14706218
-0.061854858 0.22101888 0.067740746 -0.109462835 0.21734792 0.15311371 0.07704462 -0.21496919
-0.15448852 0.3255015 -0.2147898 0.29857042 0.19799876 -0.08673982 -0.43155968 0.21033044
-0.055416487 0.19355391 -0.23141372 0.36871034 -0.042228337 0.20162556 -0.4586597 -0.3045905
-0.3506821 0.10077698 -0.113495745 -0.56898844 0.034000337 0.5721257 0.00040392095 0.14755264
-0.1172293 0.125847 -0.408373 0.103686124 -0.12273421 0.16019838 -0.060054295 0.2301547
-0.19886737 -0.1280779 0.43425515 -0.07331417 -0.22242025 -0.22670218 -0.032527998 -0.084167734
-0.030836418 -0.35527205 -0.34800377 -0.20441182 0.20191638 -0.28429034 -0.31654125 0.15269087
-0.32129282 -0.13174759 0.30299395 -0.41462615 0.68561333 0.059078846 0.060475387 0.13976152
0.062350046 0.47940987 -0.084923394 0.06185004 -0.09855843 -0.006886951 0.110327326 -0.11819989
-0.09217565 -0.3452568 -0.11291144 0.26133022 0.12429697 0.028178748 0.42562082 -0.19141431
-0.046058986 0.08207904 0.05119118 -0.11586063 0.23963128 0.3179233 -0.12299083 -0.0032608225
0.0034496991 -0.056944307 -0.22554731 0.15249382 -0.56643647 0.032759327 -0.12807125 0.38101533
0.36443 0.10876703 0.17530471 -0.01779823 0.3972752 0.21105927 -0.067828506 -0.22875893
-0.6194097 0.12941244 -0.25770125 -0.17238693 0.036284324 -0.36638415 0.63339776 -0.06765919
0.3764114 -0.030853983 -0.01880368 -0.36401185 0.36188626 0.028653823 -0.06919923 0.016124343
-0.13700485 0.07851277 -0.21151178 0.29969266 -0.08408711 0.15896688 -0.002617895 -0.17011502
0.31984422 0.38406572 0.24705733 -0.36594766 0.30687937 0.067301296 0.014586063 0.2628307
0.3308729 -0.19888157 0.37513652 -0.37880743 -0.739567 -0.43235686 -0.15776066 -0.029276017

down1.maxpool_conv.1.double_conv.5.bias f4 [32]
00000000: f1db 69bd 25de 8ebd 36cc e3bc 8db4 b2bd
00000010: 852f 063e 48de 0b3e 7907 22bd b07f 743d
00000020: ba7c d6bd ab31 99bd 4ba5 24be d4a2 32be
00000030: 0eae 2ebd d07a f13d c911 da3d f80a fa3d
00000040: dfa2 703b 196e 34be 4b93 cb3d ae85 e5bc
00000050: 886a 4ebd e53e 9ebc 6e84 88bc 2726 9abd
00000060: 75b4 0d3c edfe 163d d50c 2cbe 1bbb dabd
00000070: 0838 013e 65fe 9f3d 6726 2e3e 95eb 233e
-0.057094518 -0.069759645 -0.027807336 -0.087258436 0.13104065 0.13659012 -0.039557908 0.059692085
-0.104730085 -0.074801765 -0.1607868 -0.17444927 -0.04264646 0.11791003 0.106479235 0.122091234
0.0036718172 -0.17620124 0.09940203 -0.028017845 -0.050394565 -0.0193171 -0.01666471 -0.07526808
0.008648981 0.03686421 -0.1680177 -0.10680219 0.1261903 0.07812194 0.17006837 0.16007836

down1.maxpool_conv.1.double_conv.6.weight f4 [32]
00000000: 6bf7 7f3f 0fb3 6e3f 03bc 943f 673f 653f
00000010: 89bd 883f a1cc 743f e62f 583f 4f5e 983f
00000020: 9ba9 3d3f 6f87 6a3f 64e5 853f 39b7 8d3f
00000030: 4271 823f 1fd4 653f 7544 463f b8af a23f
00000040: f82a 6e3f 4aeb 523f 0ad9 6c3f dda9 7b3f
00000050: c4d3 5b3f f977 703f 3fa7 863f 7a63 7d3f
00000060: 3d0b 8f3f bd67 513f 551c a63f 052f 813f
00000070: 70d3 7d3f 3d8e 7e3f 02a9 633f 58e3 9a3f
0.99986905 0.9324197 1.1619877 0.8954987 1.0682842 0.9562474 0.8444809 1.1903781
0.7408692 0.91612905 1.046063 1.107154 1.0190814 0.89776796 0.7744821 1.2709875
0.93034315 0.8239027 0.92518675 0.98306066 0.85870004 0.93933064 1.051979 0.98979914
1.1175305 0.8179892 1.2977396 1.0092474 0.99150753 0.9943579 0.8892976 1.210063

down1.maxpool_conv.1.double_conv.6.bias f4 [32]
00000000: b85d 9abe 24b6 c1be f022 b5bc f948 be3e
00000010: 667f a4bd c38e c13d 7b2d 09bf 20ec 483d
00000020: 28b1 13be 8f8c 6d3c 9c0a 0b3e 956a 34be
00000030: 3d86 a63e e340 edbc c70e 2a3f 2bae 9b3e
00000040: b5d7 5cbd 2c4f 063e e921 ba3e 870c e4bd
00000050: 8327 973c d247 0e3f d434 a53e 874a b23e
00000060: af0f 6f3f 5d50 f73d d225 4b3e 6fdb 003f
00000070: e07e cc3e 6ab9 2d3e 4fe3 0ebc d2f1 04be
-0.30149627 -0.37834275 -0.022111386 0.3716505 -0.08032112 0.09451058 -0.5358502 0.04905331
-0.14423048 0.014498844 0.13578266 -0.17618783 0.3252429 -0.028961604 0.664288 0.30406317
-0.05391665 0.13116139 0.36353996 -0.11135202 0.018451458 0.5557834 0.32266867 0.34822485
0.93383306 0.12075875 0.19838646 0.5033483 0.39940548 0.16965261 -0.008721187 -0.12982872

down1.maxpool_conv.1.double_conv.6.running_mean f4 [32]
00000000: af88 bc3e e0f3 abbf 360c 5e3e f28c af3e
00000010: ba3c acbf b086 8bbe 4868 aa3e 4eeb dfbe
00000020: 58c3 e9bc 8b01 10bf 3769 e63e d332 0abe
00000030: 5db1 283e 563e 163f 618d 0ec0 b303 f0bf
00000040: b0cc ecbe 9e3d 293e 0112 923e c3f2 d2bf
00000050: 8450 8bbf df2e 8abf e96b d43e 7675 c43d
00000060: 753d 26bf cac5 0a3d ef5d 55bf 0858 643d
00000070: aa0a 93be 18ef e23e cebb 9c3e e371 803e
0.3682303 -1.34338 0.21684346 0.3428722 -1.3456032 -0.27251196 0.33282685 -0.4373421
-0.02853553 -0.56252354 0.45002148 -0.1349595 0.16473909 0.5868887 -2.227379 -1.8751129
-0.46249914 0.16527411 0.2852936 -1.6480335 -1.0883946 -1.0795554 0.4148858 0.095927164
-0.64937526 0.033880033 -0.83346456 0.055748016 -0.28719074 0.4432304 0.30612034 0.2508689

down1.maxpool_conv.1.double_conv.6.running_var f4 [32]
00000000: b56f f43f e2fc 9d3f e351 3040 73a1 983f
00000010: ed02 c73f 7558 c73f 2427 eb3f e72c af3f
00000020: 5109 8f3f b09a f93f 8a5b b63f ace5 a73f
00000030: 38d9 1440 8277 bc3f b543 e53f 8a73 6940
00000040: 7089 8e3f 0604 c03f a72f 0740 2d61 5a3f
00000050: a1f5 af3f fa02 da3f 89b0 b83f ea66 fc3f
00000060: fd3d a03f b8c4 0f40 a6cb 0640 de97 a53f
00000070: aca0 973f 4285 e23f d619 b33f 3c58 2d40
1.909659 1.2342799 2.754998 1.192427 1.5547768 1.557387 1.837132 1.3685578
1.1174718 1.9500332 1.4246686 1.3116965 2.325758 1.4723971 1.7911288 3.647677
1.1135693 1.5001228 2.1122835 0.8530453 1.3746835 1.7032158 1.4428874 1.9718907
1.2518917 2.2463818 2.1061797 1.2936971 1.1845908 1.7696917 1.399226 2.7085104
